…
 with 4, 8, and 16 channels     down_block_types=(         \"DownBlock2D\",             # A resnet block         \"DownBlock2D\",         \"DownBlock2D\",     ),     up_block_types=(         \"UpBlock2D\",               # Upsampling block         \"UpBlock2D\",         \"UpBlock2D\",     ),     num_class_embeds=10,           # 10 class embeddings for the 10 digits     norm_num_groups=2,             # 2 groups for normalization, you will have to change this if you change the number of channels in your blocks ) In\u00a0[25]: Copied! <pre>model\n</pre> model Out[25]: <pre>UNet2DModel(\n  (conv_in): Conv2d(1, 4, kernel_size=(3, 3), stride=(1, 1), padding=(1, 1))\n  (time_proj): Timesteps()\n  (time_embedding): TimestepEmbedding(\n    (linear_1): Linear(in_features=4, out_features=16, bias=True)\n    (act): SiLU()\n    (linear_2): Linear(in_features=16, out_features=16, bias=True)\n  )\n  (class_embedding): Embedding(10, 16)\n  (down_blocks): ModuleList(\n    (0): DownBlock2D(\n      (resnets): ModuleList(\n        (0): ResnetBlock2D(\n          (norm1): GroupNorm(2, 4, eps=1e-05, affine=True)\n          (conv1): Conv2d(4, 4, kernel_size=(3, 3), stride=(1, 1), padding=(1, 1))\n          (time_emb_proj): Linear(in_features=16, out_features=4, bias=True)\n          (norm2): GroupNorm(2, 4, eps=1e-05, affine=True)\n          (dropout): Dropout(p=0.0, inplace=False)\n          (conv2): Conv2d(4, 4, kernel_size=(3, 3), stride=(1, 1), padding=(1, 1))\n          (nonlinearity): SiLU()\n        )\n      )\n      (downsamplers): ModuleList(\n        (0): Downsample2D(\n          (conv): Conv2d(4, 4, kernel_size=(3, 3), stride=(2, 2), padding=(1, 1))\n        )\n      )\n    )\n    (1): DownBlock2D(\n      (resnets): ModuleList(\n        (0): ResnetBlock2D(\n          (norm1): GroupNorm(2, 4, eps=1e-05, affine=True)\n          (conv1): Conv2d(4, 8, kernel_size=(3, 3), stride=(1, 1), padding=(1, 1))\n          (time_emb_proj): Linear(in_features=16, out_features=8, bias=True)\n          (norm2): GroupNorm(2, 8, eps=1e-05, affine=True)\n          (dropout): Dropout(p=0.0, inplace=False)\n          (conv2): Conv2d(8, 8, kernel_size=(3, 3), stride=(1, 1), padding=(1, 1))\n          (nonlinearity): SiLU()\n          (conv_shortcut): Conv2d(4, 8, kernel_size=(1, 1), stride=(1, 1))\n        )\n      )\n      (downsamplers): ModuleList(\n        (0): Downsample2D(\n          (conv): Conv2d(8, 8, kernel_size=(3, 3), stride=(2, 2), padding=(1, 1))\n        )\n      )\n    )\n    (2): DownBlock2D(\n      (resnets): ModuleList(\n        (0): ResnetBlock2D(\n          (norm1): GroupNorm(2, 8, eps=1e-05, affine=True)\n          (conv1): Conv2d(8, 16, kernel_size=(3, 3), stride=(1, 1), padding=(1, 1))\n          (time_emb_proj): Linear(in_features=16, out_features=16, bias=True)\n          (norm2): GroupNorm(2, 16, eps=1e-05, affine=True)\n          (dropout): Dropout(p=0.0, inplace=False)\n          (conv2): Conv2d(16, 16, kernel_size=(3, 3), stride=(1, 1), padding=(1, 1))\n          (nonlinearity): SiLU()\n          (conv_shortcut): Conv2d(8, 16, kernel_size=(1, 1), stride=(1, 1))\n        )\n      )\n    )\n  )\n  (up_blocks): ModuleList(\n    (0): UpBlock2D(\n      (resnets): ModuleList(\n        (0): ResnetBlock2D(\n          (norm1): GroupNorm(2, 32, eps=1e-05, affine=True)\n          (conv1): Conv2d(32, 16, kernel_size=(3, 3), stride=(1, 1), padding=(1, 1))\n          (time_emb_proj): Linear(in_features=16, out_features=16, bias=True)\n          (norm2): GroupNorm(2, 16, eps=1e-05, affine=True)\n          (dropout): Dropout(p=0.0, inplace=False)\n          (conv2): Conv2d(16, 16, kernel_size=(3, 3), stride=(1, 1), padding=(1, 1))\n          (nonlinearity): SiLU()\n          (conv_shortcut): Conv2d(32, 16, kernel_size=(1, 1), stride=(1, 1))\n        )\n        (1): ResnetBlock2D(\n          (norm1): GroupNorm(2, 24, eps=1e-05, affine=True)\n          (conv1): Conv2d(24, 16, kernel_size=(3, 3), stride=(1, 1), padding=(1, 1))\n          (time_emb_proj): Linear(in_features=16, out_features=16, bias=True)\n          (norm2): GroupNorm(2, 16, eps=1e-05, affine=True)\n          (dropout): Dropout(p=0.0, inplace=False)\n          (conv2): Conv2d(16, 16, kernel_size=(3, 3), stride=(1, 1), padding=(1, 1))\n          (nonlinearity): SiLU()\n          (conv_shortcut): Conv2d(24, 16, kernel_size=(1, 1), stride=(1, 1))\n        )\n      )\n      (upsamplers): ModuleList(\n        (0): Upsample2D(\n          (conv): Conv2d(16, 16, kernel_size=(3, 3), stride=(1, 1), padding=(1, 1))\n        )\n      )\n    )\n    (1): UpBlock2D(\n      (resnets): ModuleList(\n        (0): ResnetBlock2D(\n          (norm1): GroupNorm(2, 24, eps=1e-05, affine=True)\n          (conv1): Conv2d(24, 8, kernel_size=(3, 3), stride=(1, 1), padding=(1, 1))\n          (time_emb_proj): Linear(in_features=16, out_features=8, bias=True)\n          (norm2): GroupNorm(2, 8, eps=1e-05, affine=True)\n          (dropout): Dropout(p=0.0, inplace=False)\n          (conv2): Conv2d(8, 8, kernel_size=(3, 3), stride=(1, 1), padding=(1, 1))\n          (nonlinearity): SiLU()\n          (conv_shortcut): Conv2d(24, 8, kernel_size=(1, 1), stride=(1, 1))\n        )\n        (1): ResnetBlock2D(\n          (norm1): GroupNorm(2, 12, eps=1e-05, affine=True)\n          (conv1): Conv2d(12, 8, kernel_size=(3, 3), stride=(1, 1), padding=(1, 1))\n          (time_emb_proj): Linear(in_features=16, out_features=8, bias=True)\n          (norm2): GroupNorm(2, 8, eps=1e-05, affine=True)\n          (dropout): Dropout(p=0.0, inplace=False)\n          (conv2): Conv2d(8, 8, kernel_size=(3, 3), stride=(1, 1), padding=(1, 1))\n          (nonlinearity): SiLU()\n          (conv_shortcut): Conv2d(12, 8, kernel_size=(1, 1), stride=(1, 1))\n        )\n      )\n      (upsamplers): ModuleList(\n        (0): Upsample2D(\n          (conv): Conv2d(8, 8, kernel_size=(3, 3), stride=(1, 1), padding=(1, 1))\n        )\n      )\n    )\n    (2): UpBlock2D(\n      (resnets): ModuleList(\n        (0): ResnetBlock2D(\n          (norm1): GroupNorm(2, 12, eps=1e-05, affine=True)\n          (conv1): Conv2d(12, 4, kernel_size=(3, 3), stride=(1, 1), padding=(1, 1))\n          (time_emb_proj): Linear(in_features=16, out_features=4, bias=True)\n          (norm2): GroupNorm(2, 4, eps=1e-05, affine=True)\n          (dropout): Dropout(p=0.0, inplace=False)\n          (conv2): Conv2d(4, 4, kernel_size=(3, 3), stride=(1, 1), padding=(1, 1))\n          (nonlinearity): SiLU()\n          (conv_shortcut): Conv2d(12, 4, kernel_size=(1, 1), stride=(1, 1))\n        )\n        (1): ResnetBlock2D(\n          (norm1): GroupNorm(2, 8, eps=1e-05, affine=True)\n          (conv1): Conv2d(8, 4, kernel_size=(3, 3), stride=(1, 1), padding=(1, 1))\n          (time_emb_proj): Linear(in_features=16, out_features=4, bias=True)\n          (norm2): GroupNorm(2, 4, eps=1e-05, affine=True)\n          (dropout): Dropout(p=0.0, inplace=False)\n          (conv2): Conv2d(4, 4, kernel_size=(3, 3), stride=(1, 1), padding=(1, 1))\n          (nonlinearity): SiLU()\n          (conv_shortcut): Conv2d(8, 4, kernel_size=(1, 1), stride=(1, 1))\n        )\n      )\n    )\n  )\n  (mid_block): UNetMidBlock2D(\n    (attentions): ModuleList(\n      (0): Attention(\n        (group_norm): GroupNorm(2, 16, eps=1e-05, affine=True)\n        (to_q): Linear(in_features=16, out_features=16, bias=True)\n        (to_k): Linear(in_features=16, out_features=16, bias=True)\n        (to_v): Linear(in_features=16, out_features=16, bias=True)\n        (to_out): ModuleList(\n          (0): Linear(in_features=16, out_features=16, bias=True)\n          (1): Dropout(p=0.0, inplace=False)\n        )\n      )\n    )\n    (resnets): ModuleList(\n      (0-1): 2 x ResnetBlock2D(\n        (norm1): GroupNorm(2, 16, eps=1e-05, affine=True)\n        (conv1): Conv2d(16, 16, kernel_size=(3, 3), stride=(1, 1), padding=(1, 1))\n        (time_emb_proj): Linear(in_features=16, out_features=16, bias=True)\n        (norm2): GroupNorm(2, 16, eps=1e-05, affine=True)\n        (dropout): Dropout(p=0.0, inplace=False)\n        (conv2): Conv2d(16, 16, kernel_size=(3, 3), stride=(1, 1), padding=(1, 1))\n        (nonlinearity): SiLU()\n      )\n    )\n  )\n  (conv_norm_out): GroupNorm(2, 4, eps=1e-05, affine=True)\n  (conv_act): SiLU()\n  (conv_out): Conv2d(4, 1, kernel_size=(3, 3), stride=(1, 1), padding=(1, 1))\n)</pre> In\u00a0[26]: Copied! <pre>transform = transforms.Compose([transforms.ToTensor(), transforms.Normalize((0.5,), (0.5,))])\n\nDATA_PATH = '../data/'\n\ntrain_dataset = datasets.MNIST(root=DATA_PATH, train=True, download=True, transform=transform)\ntest_dataset = datasets.MNIST(root=DATA_PATH, train=False, download=True, transform=tran
…
